new_distilled_model.tflite (tflite, 14616 bytes, 5 tensors)

arith.constant f4 [1, 32]
000000 96 95 46 bf 30 e4 a5 be a1 dd 08 3f 6a f3 36 bf
       -0.77572 -0.32400656 0.5346318 -0.7146517
000010 a9 e2 f8 3f ff 7d f6 3e 1a 1b 1a 3f c2 a0 03 bf
       1.9444171 0.48143002 0.60197604 -0.5141717
000020 6e ba d4 bf 94 71 be 3e ac 1d 13 3f d5 68 7c be
       -1.6619394 0.37196028 0.5746715 -0.24649365
000030 6c 98 7a 3f 2c 6b c6 bf af 8f 58 3f 55 03 83 be
       0.9788883 -1.5501456 0.84594244 -0.2558848
000040 ab a6 ab 3d f0 99 4d 3f 28 cc e2 bf 25 7d e3 bd
       0.08381399 0.80313015 -1.7718554 -0.11107854
000050 d2 a9 b5 3e 01 80 75 3f ea 26 c2 be bd f8 67 3f
       0.35481125 0.95898443 -0.37920314 0.9061392
000060 35 48 80 3f 9d 55 15 bf 63 7c 45 3f cc 12 04 3f
       1.0022036 -0.5833376 0.77142924 0.5159118
000070 72 80 98 bf 16 52 b8 3e 1f e3 3e 3f 13 bb 2f 3e
       -1.1914198 0.36000127 0.7456531 0.17161207

arith.constant1 f4 [32, 64]
000000 46 c0 a7 3c 58 b3 45 3e bd 9d 1d c0 3c 04 ef 3d
       0.020477425 0.19306695 -2.4627526 0.116707295
000010 c2 51 8a be d1 19 56 3e 55 99 c8 3d 82 91 8f 3e
       -0.270155 0.20908286 0.09794871 0.280407
000020 0e ca 1a bf c0 c5 33 bd 33 57 bb 3e f0 38 bf 3d
       -0.6046456 -0.04388976 0.36589965 0.09337032
000030 0f 34 44 be c2 22 e7 3d 90 ab af bf 9f 46 b3 bc
       -0.19160484 0.112859264 -1.3724232 -0.02188426
000040 67 ef a5 bc cd 5e d1 3d d9 b2 04 3f 6b df 28 c1
       -0.020255757 0.1022316 0.518354 -10.554545
000050 49 a2 ce c0 c5 30 ad 3e bb 84 3f bc 99 97 eb bd
       -6.45731 0.3382627 -0.01168936 -0.11503524
000060 81 5b 34 3f 30 47 30 3f 37 8a 8b 3e c1 39 b2 bc
       0.70452124 0.68858624 0.27253887 -0.021756055
000070 a4 34 ad 3e 9b a0 a3 be 4d ae 8c 3e eb c5 c4 be
       0.33829224 -0.3195847 0.2747673 -0.3843225
000080 ac 45 ed 3e 2c 99 03 be 41 fc 48 be 00 0c c8 bb
       0.46342218 -0.12851399 -0.19627477 -0.006104946
000090 2d b8 58 3e 55 d2 7e bf de cb e3 3e 90 cc 94 3e
       0.21164007 -0.9953969 0.44491476 0.2906232
0000a0 d1 fc ff 3e 2a 6e 1c 3e dd df 9e be 19 31 11 3f
       0.4999757 0.15276399 -0.3103017 0.5671554
0000b0 d5 ee 54 be 7a b5 0f be 1d 9b a6 3e 87 e5 87 3e
       -0.20794232 -0.14034072 0.32540217 0.26542303
0000c0 6d 4b f9 bd 5b 75 f0 c0 08 e5 4a 3e db 16 2d 3e
       -0.121725895 -7.5143256 0.19813931 0.1690325
0000d0 2c e2 ed bc b0 f7 7b bf c7 18 ae 3d 0e bc dd bc
       -0.029038511 -0.98424816 0.0850082 -0.02706721
0000e0 94 da 17 be 66 ec 4b be 9d eb b4 3e 7d 1c c0 3e
       -0.14829475 -0.19914398 0.3533601 0.37521735
0000f0 1a f7 b2 3e 4b 02 23 be 1d a7 53 be ce 8c 61 be
       0.3495415 -0.15918843 -0.20669217 -0.22026369
000100 26 92 3e c0 4e de 38 3f 54 eb 8c 3e 4e 8a 05 3f
       -2.9776702 0.7221421 0.2752329 0.5216416
000110 59 7b 3d be a3 4c 82 3e 97 58 9a 3d 3f bf 24 be
       -0.18504085 0.25449094 0.075364284 -0.1608858
000120 5a 01 cd bd fa b2 15 3f f9 4d bc 3e 5b 52 ac 3e
       -0.100100234 0.5847622 0.36778238 0.33656582
000130 6a 0c 8e 3e f1 82 29 3e e1 47 b7 3e ab 91 f6 3d
       0.27743846 0.16553856 0.35797027 0.12039503
000140 d6 83 c8 bd db cf 7e bd 27 9d 74 bd 0f 37 32 3f
       -0.09790771 -0.062209945 -0.059720185 0.6961526
000150 58 94 f9 3e 14 c0 d2 3e d8 cb 6b bd fe a3 cb 3e
       0.4874599 0.4116217 -0.057567447 0.39773554
000160 d8 79 96 be 0f a5 80 3e 92 97 3d 3e 04 26 6a 3f
       -0.29389834 0.2512593 0.1851485 0.9146426
000170 81 6f 79 bf d5 15 85 be 04 86 49 be 88 09 b5 bf
       -0.97435766 -0.2599322 -0.19680029 -1.4143534
000180 c8 cb 2e be c9 1a 27 3f 17 9c 3c be 00 41 00 3e
       -0.17069924 0.65275246 -0.18418919 0.12524796
000190 ec b9 93 3d 0c be 35 3d e5 a1 01 3f 60 4d 2f bf
       0.07213196 0.044370696 0.50637656 -0.6847744
0001a0 53 e0 1d 3e d2 d2 57 3f 6b 0c 87 3f cc 15 05 bd
       0.15417604 0.8430606 1.0550665 -0.03249149
0001b0 41 22 56 bb 79 d8 c2 be e0 4c 76 bf 1f 08 1c 3f
       -0.0032674226 -0.3805578 -0.9621105 0.6094989
0001c0 0f b4 07 be 7d 82 47 be 3e c2 49 bf 6a e1 43 be
       -0.1325228 -0.19483371 -0.78812015 -0.19128957
0001d0 e9 b5 48 bf c9 70 bf be 11 8e 26 3e 54 82 3c 3f
       -0.7840257 -0.37390736 0.16265132 0.73636365
0001e0 3c 55 a5 c0 40 3d fc 3e 58 48 f1 3d f2 f2 c3 be
       -5.1666546 0.4926548 0.117813766 -0.3827129
0001f0 e0 ce 0c bf dd c5 77 3b 8e d7 e4 bd 24 c7 3b bf
       -0.55003166 0.0037807145 -0.11173926 -0.7335074
000200 3e ad ab be 30 a8 cc bd dd d7 98 be 1b e5 07 3d
       -0.3353061 -0.09993017 -0.2985219 0.033177476
000210 c2 87 b4 bf 16 dd ab 3e 6d 00 eb 3e 3c 03 a7 be
       -1.410393 0.33567113 0.45898762 -0.32619655
000220 75 61 64 3e 30 9a 9b 3e b3 1c 84 3d cc 61 00 3e
       0.22302802 0.30391073 0.064507864 0.12537307
000230 f7 8e 9f bf 00 df 78 be 09 b8 2b 3f 15 5f 8c be
       -1.2465504 -0.24303818 0.6707769 -0.27416292
000240 f1 f4 d2 bf ac e9 e6 3d dc 34 6e 3e 74 dd be bf
       -1.6481 0.11275038 0.23262352 -1.4911332
000250 2d 99 08 c1 94 8d 44 3f b4 a5 36 be 65 4f 97 3f
       -8.537396 0.7677853 -0.17836648 1.1821104
000260 21 d9 a8 be 66 1b 98 3d c4 18 57 c0 6d fe dd bc
       -0.32978156 0.07427101 -3.3608866 -0.027098859
000270 17 f2 db be a2 13 05 bf ee d2 74 be 57 2f 8d be
       -0.42958137 -0.5198308 -0.23908588 -0.2757518
000280 4b ab 02 c0 b1 26 e6 be 1e ca de bd 40 25 87 c0
       -2.041705 -0.44951394 -0.108783945 -4.223297
000290 c2 7f fe 3c 01 d0 ab 3e ba 52 72 3f 3e dd 8d 3e
       0.031066779 0.33557132 0.9465748 0.27707857
0002a0 89 55 93 3e b4 17 17 3e 06 1d d8 3e 8d d9 07 3e
       0.28776196 0.14755136 0.42209643 0.13266583
0002b0 12 a1 5f 3e fd 80 05 c1 cb 3e ec 3e 26 64 b0 bf
       0.21838787 -8.343991 0.46141657 -1.3780563
0002c0 83 77 8b 3e 08 fa b9 bf 0e 10 da 3d 6b 20 3d bd
       0.27239618 -1.4529428 0.106475934 -0.046173494
0002d0 c8 0d 52 bf d2 05 8a bd 94 5b 4b be 11 2b 99 bb
       -0.8205228 -0.067393914 -0.19859153 -0.0046743234
0002e0 ef ec 11 bf f3 3e 6e bf c9 dc 54 be 28 15 41 3e
       -0.57002157 -0.930648 -0.20787348 0.18855727
0002f0 f7 30 8a 3f f5 97 86 3f 37 ad 4c 3d 06 43 c0 be
       1.0796193 1.0515124 0.049969878 -0.37551135
000300 c1 6d 29 bf fb 2c 2c 3f 7e e0 bd bd f3 41 1f 3f
       -0.66183096 0.67256135 -0.09271334 0.62210006
000310 fa a8 ff bf b7 61 e8 3e 0c cb d7 be 88 7a 3f 3f
       -1.9973443 0.4538705 -0.421471 0.7479634
000320 a0 15 1e 3f 25 6f 0d bf f5 b3 6f 3e 67 cf 3c 3e
       0.6175175 -0.5524772 0.23408492 0.18438493
000330 25 17 f5 3f c1 27 42 c0 3e 2a 4d bf e8 c6 48 bf
       1.9147688 -3.0336764 -0.8014258 -0.78428507
000340 c8 ba 97 be 84 fc 22 be 94 39 0f 3f 1f 3e 42 c0
       -0.2963469 -0.1591664 0.5594723 -3.0350416
000350 41 78 35 c0 70 33 59 bd 94 8c 0c be 76 0b 8f 3e
       -2.8354647 -0.05302757 -0.13725501 0.27938432
000360 f6 67 e1 3e dd 3a 21 bf 55 ae 5a bf 9a 79 8a be
       0.44024628 -0.62980443 -0.8542226 -0.270459
000370 b1 ea ba 3e 80 21 93 3e 31 55 3c 3c 2b 46 b7 3e
       0.3650718 0.28736496 0.011494921 0.3579572
000380 4f 1a 83 3f b3 f3 97 3e 3d 2d cb 3e 71 0f 43 bf
       1.0242404 0.29678115 0.39682952 -0.76195437
000390 34 2b d1 3e 17 87 d5 3d 3a 74 82 3d 4a 51 a1 be
       0.40853274 0.10426157 0.06369825 -0.3150733
0003a0 2d 7d 9f 3d ec e5 0e c0 7e 51 00 3e f7 70 ac 3e
       0.07787547 -2.2327833 0.12531087 0.33679935
0003b0 14 16 86 c0 2b 75 08 3f f3 dd b9 3e 63 88 cc 3d
       -4.190195 0.53303784 0.36302146 0.09986951
0003c0 06 e1 63 bd 12 0d f6 bf ec 07 32 3f d0 d0 9f c0
       -0.05563452 -1.9222739 0.6954334 -4.99424
0003d0 71 20 8a 3f 59 cd 22 be 47 54 49 3d ea 40 aa bf
       1.079115 -0.15898646 0.04915264 -1.330106
0003e0 5a 14 ae 3c 08 1b 64 bd e1 44 a5 3c 52 47 a2 bf
       0.021249939 -0.05568984 0.020174446 -1.2678015
0003f0 49 64 32 3e 00 48 88 be 9f c0 f3 bf 9b 1b 13 c0
       0.17421068 -0.26617432 -1.9043158 -2.29856

sequential_1/dense_1_2/BiasAdd/ReadVariableOp f4 [32]
000000 f1 17 ac 3f ba 80 04 be 40 00 84 3e b2 ff 56 3e
       1.3444806 -0.1293973 0.2578144 0.20995978
000010 12 26 76 bf 2c 67 a0 3e 79 31 0a bf 10 77 a4 be
       -0.9615184 0.31328714 -0.5398174 -0.32122087
000020 c1 54 db 3e 37 f4 3a 3f bb a4 26 bf 09 66 a1 3c
       0.428381 0.7302889 -0.6509511 0.019701974
000030 35 76 18 3f 5a 22 b3 bf 1b 18 c1 be aa 75 24 be
       0.5955537 -1.3994858 -0.37713704 -0.1606051
000040 59 a4 66 3e 6b 6a 26 be 8d 7b 4c 3e b7 04 a6 be
       0.22523631 -0.16251533 0.19969006 -0.32425472
000050 26 36 1c 3f b3 01 38 3f 0e 03 ac be 39 19 ec be
       0.61020124 0.7187759 -0.3359608 -0.46112993
000060 23 f7 eb 3c 70 42 2e bf 16 41 17 3f e3 0a 32 3f
       0.028804367 -0.68070126 0.5908369 0.6954786
000070 83 b1 70 3f fb 3a 8c 3e c8 39 85 3c 11 a2 12 3f
       0.9402086 0.2738875 0.016262904 0.57278544

sequential_1/dense_1/BiasAdd/ReadVariableOp f4 [64]
000000 41 bc c0 bf 60 5b 32 bf d8 d6 8c bf d4 30 b9 bf
       -1.505745 -0.6967068 -1.1003065 -1.4468026
000010 bb 65 db bf 5b 6e d2 3e 01 a9 82 bf 1d b4 5b bf
       -1.7140421 0.4109982 -1.0207826 -0.85821706
000020 b7 9e 16 bf d9 dd be 3b 48 97 c5 3e a1 18 96 be
       -0.5883593 0.005824786 0.3859198 -0.29315665
000030 ca 74 7c bf 71 af 61 bf 13 2d 81 bf 49 5a ce be
       -0.98615706 -0.8815833 -1.009188 -0.40303257
000040 bb 68 2c bf 17 9b 8b be e7 a7 33 3e 01 84 98 bf
       -0.67347306 -0.27266762 0.17544518 -1.1915284
000050 e2 d5 a8 bf 28 f8 8c 3c d8 47 2a be 7d 40 ed be
       -1.3190272 0.017208174 -0.16628969 -0.46338263
000060 42 d1 4d bf d3 16 d5 bf d9 58 6b bf 7b 3e c5 3c
       -0.8039743 -1.664759 -0.91932446 0.024077645
000070 4c 6e 9c bf 8b ab 4d bf 3e 48 ec be 32 bb a3 bf
       -1.222116 -0.8033988 -0.46148866 -1.2791502
000080 6c 67 87 bf 39 e8 dc bf cb 96 ec be 03 32 59 bf
       -1.0578437 -1.7258369 -0.46208796 -0.84841937
000090 dd 99 dd be ec e0 44 bf 3f 50 de be ac fd 1f bf
       -0.4328145 -0.76905704 -0.43420598 -0.6249645
0000a0 dc 2e 64 be 21 39 67 bf e4 6c 09 bf 33 35 2a 3e
       -0.222835 -0.90321547 -0.5368178 0.16621856
0000b0 7f 2c ed be da 0c 82 bf 43 a1 2a 3e 5c 5e 84 be
       -0.4632301 -1.0160172 0.16663079 -0.2585324
0000c0 3a e6 42 be 7e 0f 56 bf dd db a7 be 29 d0 c6 be
       -0.19033137 -0.8361739 -0.3278493 -0.3883069
0000d0 85 15 12 bf ef ce 3c bf f8 f1 66 bf 63 ef 25 bf
       -0.57064086 -0.73753256 -0.90212965 -0.648184
0000e0 26 c2 c2 be d0 99 92 bf b5 07 59 3e 80 71 fc be
       -0.38038749 -1.145319 0.21194346 -0.49305344
0000f0 67 33 99 bf 5b 3c a2 bf 17 15 2f bf 5b c9 cd bf
       -1.1968812 -1.2674669 -0.68391556 -1.6077074

sequential_1/dense_1/MatMul f4 [64, 15]
000000 70 e2 86 3e d9 64 ca bd ad 09 91 3f 60 73 63 bf
       0.26344633 -0.098825164 1.1331078 -0.88847923
000010 07 04 12 3e 99 28 51 be f4 cd b4 be 69 b5 c0 bd
       0.14259349 -0.20425643 -0.3531338 -0.09409601
000020 58 bd 80 bd c0 7a 63 be f9 f1 51 bd d6 79 9f bd
       -0.062861145 -0.22214794 -0.051256154 -0.0778691
000030 4f 23 1e be 43 e2 a3 3e 00 2d c8 3e 11 ee 84 bd
       -0.15443157 0.32008561 0.39096832 -0.0649072
000040 25 96 f4 be 6c 69 ba 3e 1b d0 94 be 04 00 49 be
       -0.477708 0.36408556 -0.29065022 -0.19628912
000050 ae 39 f4 bd 99 f2 1a 3e 4b 53 1c be 09 76 67 be
       -0.11925064 0.15131606 -0.15266149 -0.2260362
000060 b6 cc 61 3e 37 b3 e4 bd 5e e1 15 3e 8a e3 17 be
       0.22050747 -0.11166995 0.14636752 -0.14832893
000070 e6 9a 89 bd 70 1f 83 3e cd 0a 2a c0 d6 6f eb 3d
       -0.06718998 0.25609922 -2.6569092 0.114959404
000080 d7 e4 12 3b 10 4b 1f 3d 47 20 03 3d 46 36 a1 3f
       0.0022414231 0.038889945 0.032013204 1.2594688
000090 fc d8 58 bc 36 c2 64 3f 2c 30 4c 3f 5a 9b 5f bb
       -0.013235327 0.8935884 0.79761004 -0.0034119696
0000a0 7a 45 47 3e e0 bc 38 3b 21 53 a9 3e 61 a8 3f 3d
       0.19460097 0.002818875 0.33071235 0.046791438
0000b0 d4 00 39 3b bc e8 39 bf d3 01 54 bc 16 ff 45 3d
       0.0028229253 -0.7262075 -0.012939888 0.048338972
0000c0 17 d0 b7 3e 4e cc 81 be 1b 02 8e 3b 46 80 dd 3d
       0.35900947 -0.25351185 0.004333747 0.10815482
0000d0 a0 47 46 3e e4 10 1b 3e 8d 55 8a 3f 87 55 ce bd
       0.1936326 0.15143162 1.0807358 -0.10074907
0000e0 12 8a ee bb c1 46 17 3e 2b 5d 82 bd 19 43 0a be
       -0.007279643 0.14773084 -0.06365427 -0.13502158
0000f0 a9 74 2d 3f 3e 14 b2 bf 7d 69 33 3e bc 8c d4 3d
       0.67756134 -1.3912427 0.1752071 0.103784055
000100 90 03 9f 3e a5 f4 8a 3e 0a c8 9e 3e 88 72 e5 3e
       0.31057405 0.27139774 0.31011993 0.44813943
000110 f0 1b a6 3e 42 ae d7 bc 58 6b b3 3d 2d a3 82 3d
       0.3244319 -0.02632821 0.087607086 0.063787796
000120 db ce 8b bc 84 b0 2c 3c f0 83 a5 bb 88 d3 35 bd
       -0.01706641 0.0105401315 -0.0050511286 -0.044391185
000130 f3 bc 2d 3f 84 d0 95 3c a9 84 79 bd 4d c7 bf be
       0.6786644 0.018287905 -0.06091753 -0.37456742
000140 d1 34 84 be 10 e0 2b 3d 58 79 aa 3d a7 6d c2 3e
       -0.25821546 0.04196173 0.08323926 0.37974283
000150 06 3d c0 3c f6 13 51 be 1e 35 db be e7 61 da be
       0.023466598 -0.2041777 -0.42813963 -0.4265282
000160 8b 11 36 be 8a f1 b8 bd 61 67 92 3d a0 12 ed be
       -0.1778013 -0.09030445 0.07148624 -0.46303272
000170 95 fc 83 3f 02 bb 40 3f 72 7a 04 ba 05 13 03 be
       1.0311457 0.7528535 -0.0005053646 -0.12800224
000180 5e 37 e2 bd c5 ad da bc 0b 33 90 be 84 3b 46 bd
       -0.11045717 -0.026694188 -0.28163943 -0.048396602
000190 f6 eb 57 bc 88 03 19 3f 1e d6 f8 bd 58 93 68 3d
       -0.013178816 0.59771013 -0.121502146 0.056781143
0001a0 75 ab 5f 3b ce 1f 42 3e 69 6d e1 3e 7a dc 52 bf
       0.0034129296 0.18957445 0.44028786 -0.8236767
0001b0 18 4d a9 3e 13 d5 4d 3e 11 f8 a0 bd a4 25 db 3e
       0.3306663 0.20100813 -0.07859815 0.42802155
0001c0 85 5d 33 3e 98 42 06 3f ac 2e 0f 3f 93 c3 df 3e
       0.17516144 0.52445364 0.5593059 0.437039
0001d0 2d ae 2a 3f 70 b7 c7 3e cb 71 16 3f 2f 43 0d 3f
       0.6667202 0.3900714 0.58767384 0.5518064
0001e0 97 60 e9 bf 39 e0 2b 3f 67 0d 3c 3b 5e 48 66 bd
       -1.8232602 0.6713901 0.0028694512 -0.05622136
0001f0 8f f6 d1 bd 56 46 23 3f 71 b4 a7 3c 8d 8c 0e 3e
       -0.102521054 0.637792 0.020471783 0.13920803
000200 45 1e 23 3f a5 1a 98 3c d5 a3 88 bd fb 21 e2 be
       0.6371806 0.018567393 -0.066718735 -0.4416655
000210 94 3a cc 3d bf 70 9d bd 63 f2 40 be 27 e3 e8 bc
       0.099721104 -0.0768752 -0.18842463 -0.028428627
000220 0d 76 75 3f 92 7b 15 3f b6 6a 2c 3e 81 83 e9 bd
       0.95883256 0.5839168 0.16837582 -0.114020355
000230 6d 22 24 bf a9 46 74 3e d3 1e aa be e2 11 1b bf
       -0.6411503 0.2385508 -0.33226642 -0.6057416
000240 fc c4 56 3f e9 67 0b 3d 58 07 8b be 1f 21 1a 3e
       0.83894324 0.034034643 -0.2715404 0.15051697
000250 5f 0c 1c 3f d5 e4 95 3d 0f ed 32 3e 0d c0 01 bf
       0.60956377 0.07319037 0.17473243 -0.5068367
000260 63 df 8b 3d a3 84 61 bc 36 23 73 3b a0 d5 41 bf
       0.06829717 -0.013764533 0.0037099845 -0.7571659
000270 96 d7 8f 3e d2 4c 8b 3d 2f e3 0e bf 2d 17 64 3e
       0.28094167 0.06801762 -0.55815405 0.22274466
000280 96 c1 24 bf b6 c5 da be 7b 4c 35 bf 6c cb 24 bf
       -0.6435789 -0.42728966 -0.70819825 -0.643729
000290 2c d1 81 3e 96 bb af bc 90 37 99 3e a6 17 a1 be
       0.25354898 -0.021451753 0.29925203 -0.31463355
0002a0 5d f3 01 3c d8 50 90 be cb 94 fd be 1e 85 25 be
       0.0079315575 -0.2818668 -0.49527583 -0.16164061
0002b0 b2 82 05 bf dc 25 33 bf 3e 5a 12 bf 83 ec 94 be
       -0.5215255 -0.69979644 -0.5716895 -0.29086694
0002c0 1a f5 0d bf af 63 49 be cf a4 70 be 25 aa a8 be
       -0.5545212 -0.19666933 -0.2350037 -0.3294231
0002d0 f6 4f 99 3f d2 b4 19 3c b5 7b e2 3c 4c 36 56 c0
       1.1977527 0.00938149 0.027646879 -3.347064
0002e0 f7 89 b2 be 6a d1 b3 be da 8e 40 bc d4 96 ff 3e
       -0.34870884 -0.35120708 -0.0117528085 0.4991976
0002f0 1b b2 48 3d 92 56 a7 3c 6d 29 55 3e 65 5a a3 3e
       0.04899798 0.020427022 0.20816584 0.31904903
000300 fa 48 8d ba 5b 38 78 3e 41 ac 3b 3e c7 df 61 3f
       -0.0010779195 0.24240248 0.18327428 0.8823208
000310 f9 aa 89 3e 99 7b b3 bc 62 f5 cd 3e 41 6f f9 be
       0.26888254 -0.021909522 0.40226275 -0.48717692
000320 ff b3 29 be c7 a4 80 be ff ac 75 3e 0f 1d 77 bf
       -0.1657257 -0.25125715 0.23991774 -0.96528715
000330 12 af 32 bd f7 3b b1 be d7 ef 0e bf 79 fb 70 3e
       -0.04362399 -0.34616062 -0.55834717 0.23533429
000340 8e 59 9e 3e 5a 92 9d be a8 4d 08 c0 f4 cd 76 be
       0.309277 -0.3077572 -2.1297398 -0.24102002
000350 e3 e3 79 bc df d5 e5 3c 19 de 0c bd a5 c3 85 3f
       -0.015252086 0.028056083 -0.034391496 1.0450331
000360 21 4f 36 3c cf 92 53 3e a1 52 8a 3f 78 33 8d 3c
       0.011127264 0.20661472 1.0806466 0.017236456
000370 bc 27 4f bc 39 c4 1b 3c 27 5c 1c 3e 0d 8c 0e bc
       -0.012643751 0.009507232 0.15269528 -0.008700383
000380 91 79 49 3d bb 28 e5 3e f4 75 26 ba 21 91 3f be
       0.0491882 0.44757637 -0.0006349974 -0.18707706
000390 0c 48 5e c0 87 22 48 bd 91 64 02 be 79 49 f4 3c
       -3.4731474 -0.048861053 -0.12733676 0.02982019
0003a0 58 4e 1f 3e 2d 6f 2f 3e 8c f6 01 bd 1f 75 2f be
       0.1555723 0.17132254 -0.031729266 -0.17134522
0003b0 95 fd 2f be be 5b 7a be 30 47 fd bc ca 8c 13 be
       -0.17186578 -0.2444906 -0.030917734 -0.14409176
0003c0 96 eb 81 3e 82 5a 8c bf da f0 17 3f 99 88 9f 3e
       0.2537505 -1.0965121 0.59351885 0.31158903
0003d0 49 01 a7 3d 4c 42 43 3e 4d 09 d5 bd 40 23 ed be
       0.08154542 0.19068259 -0.104021646 -0.46315956
0003e0 b2 01 2a be e8 38 84 be 6b b4 19 3c 29 89 13 bf
       -0.16602209 -0.25824666 0.009381394 -0.57631165
0003f0 7f 41 90 be 00 87 a6 3e 0c 52 aa 3e f4 54 26 c0
       -0.2817497 0.32524872 0.33265722 -2.5989351
