app/src/main/ml/fraud_model.tflite (tflite, 14616 bytes, 5 tensors)

arith.constant f4 [1, 32]
00000000: 54e1 4dbb ba0f a33b 1a06 a93e cc8a 3abd
00000010: 7955 34bd 0309 db3c 9948 89bd 15cf bfbe
00000020: 6b8f 7c3a 2007 273c 4c6e 51be cee0 9d3c
00000030: 547f ca3e 76d3 48be 79f9 ed3b c252 bd3d
00000040: b634 853e f9f3 083c 856e ee3d 4d28 813e
00000050: 8ae6 f5bd 6805 6cbd 67e5 a5bd 28d7 b93e
00000060: 32d2 1cbe 7b68 e3bd 459a cd3b 28f8 b23d
00000070: 07b4 53be b0c4 f13d 8c5a b8bc 3899 8b3e
-0.0031414824 0.00497624 0.33012468 -0.045542523 -0.044026826 0.026737696 -0.067033 -0.3746268
0.0009634408 0.01019457 -0.20452231 0.019272234 0.3955027 -0.19611916 0.0072624055 0.092443004
0.26016778 0.008358949 0.11642174 0.2522606 -0.120068625 -0.057622343 -0.08100396 0.36296964
-0.15314558 -0.111039124 0.006274494 0.08738738 -0.20674144 0.11805093 -0.022504114 0.27265334

arith.constant1 f4 [32, 64]
00000000: e01f 77be 70cf 36bd 90f8 74be 460b c63d
00000010: a486 28be 6a73 dbbd 649e 8dbe 4a6b 303e
00000020: b05d 63bd a078 febc c006 f8bc 5bc1 48be
00000030: 5cb4 8bbe 6e72 b9bd 062b b0bd 881d 9fbd
00000040: 1ca8 5abe d0bf 203d c834 343e cc15 053e
00000050: 1555 d23d 6fc7 503d 8df3 363e c0e6 d5bc
00000060: a096 2f3d 64fd 19be c085 c4bc f042 ef3d
00000070: 787b 8abd c765 b13d 7879 bf3d e0a0 a4bc
00000080: e2b2 08be c85d ddbd b8c0 74be 58af 863d
00000090: 7965 42bd f56f 82be 4480 0d3e f0ef 34be
000000a0: 29ea 06be f48d 063e 482c 623e d8a3 6bbe
000000b0: f0df 91bd a02e 31bd 18d9 343e 043b 073e
000000c0: 7699 78be 5c01 73be 0091 b0bc a48e 9cbd
000000d0: 08f9 bc3d 582a 4e3e af12 81bd 70ea 5bbe
000000e0: 884c b4bd c5f8 8dbd 2c0c a5bc 03e6 2dbd
000000f0: bcde 75be 86d9 ee3c 00f9 473e 0349 e3bc
00000100: e46b 043e 9c84 65be 5848 22be 0554 08bc
00000110: 3c72 0fbe 3a6c 383e 0e9d 72bc eb28 3d3d
00000120: 905a 1c3e e058 6bbe 204f c93c adac 903b
00000130: 2e50 013e 06ee 103e febd e4bd 00fd 2bbb
00000140: aac2 193e 6779 3ebe b855 3cbe 14bd 78be
00000150: 4a6d b93d 4c63 5cbe 9f61 2e3e d805 31be
00000160: b00c 96bd 207a aabd e7e0 82be 28b5 3c3e
00000170: 3041 1dbd 4788 73be 90cc 7bbe c0a4 37bd
00000180: b470 0e3e c7b5 683e a803 0c3d 08c3 79be
00000190: c381 3fbd 30e9 2cbd e082 8d3c 1830 68be
000001a0: 0260 40be 24a4 60be d0ce 8e3d 00cb 22bc
000001b0: 1164 7c3e e666 943d 6732 4b3e a03d 47bd
000001c0: a27f c63d 6c48 6cbe acfc 263e d88a b13d
000001d0: 60e7 843d a052 fc3c 2ff0 db3d 182a b2bd
000001e0: 4064 9abc 1edf 30bd 9ffb 643d cfa2 22be
000001f0: 40d4 3fbd c066 d33d fcaa 613e 38f7 793d
00000200: a4c9 503e fc6a 17be c036 3c3e 3836 62be
00000210: d87c 44be 80dd 2b3e 2c0c 33be 409a da3d
00000220: d00e 03bd 2064 01bd d08f b2bd 30ef b6bd
00000230: 1c2c 05be f808 3cbe b069 063e 486b 263e
00000240: 3096 103e 70f2 22be c049 253c 0037 be3b
00000250: 4071 393d bcb7 6bbe 4013 1dbd 0c76 03be
00000260: c0a9 20bd d07b 263d b080 6c3d 1810 c5bd
00000270: 60a4 62be fc20 66be 1097 17be d020 063e
00000280: 8063 ef3d 80a0 ab3c e864 77be 08f0 9c3d
00000290: 708b 10be 2058 933d b449 7dbe 70c1 60be
000002a0: a8f6 3f3e 80b8 193e f4e7 363e 7863 08be
000002b0: 2c57 10be 8cf8 743e 9028 fd3d e023 813c
000002c0: 6005 62bd 6070 9dbd b8fa 20be 7c5e 5bbe
000002d0: 8043 633d 0cf4 1b3e 9cba 71be 3c7e 1f3e
000002e0: 8039 afbc a8a5 72be dc9f 4bbe 304e 023d
000002f0: 28f1 b13d 9057 9dbd 34ce 4dbe 1801 84bd
00000300: 280f 8b3d 2004 803d 6061 423d 11c7 41be
00000310: 28f9 eabd 1071 87bc 3b6b ffbb 8b98 233d
00000320: 6018 c73d c072 773e d03f 02bd 90d0 643e
00000330: a3c7 d63d bd78 65be 1b68 553e 08b6 59be
00000340: 5830 cf3c 7208 aebd 50cf ca3d b82d 6bbe
00000350: d3b5 b63d 958a 9dbd b283 133e 40a0 f93c
00000360: b81b 863d 90b6 783e df79 44be 1095 2abd
00000370: a008 ab3c 8e96 6ebe 3050 013d 102e 87bd
00000380: cdd2 f6bd f137 85be e19b 853a 60e1 d03c
00000390: 753a 04bd 10c8 ddbc 50af 5bbd b015 013e
000003a0: 1bac 7dbd c256 763d 5050 083d 38ed d2bd
000003b0: 918c 8c3d afef ebba 1a05 0abc 4098 b2bd
000003c0: daee 87be dca1 413e 2062 6a3d 4772 fb3c
000003d0: b8dd 5abe 603d d13d a5c9 243e d814 6c3e
000003e0: d080 66be 2d87 bb3d 8b72 033e 5941 85bc
000003f0: 489b 993d c20a 473c 10fb c03d c57a 6dbb
-0.24133253 -0.04463142 -0.23922944 0.09670119 -0.16457611 -0.10715373 -0.27659905 0.17228428
-0.05550927 -0.031063378 -0.030276656 -0.1960501 -0.2728604 -0.09055029 -0.08601956 -0.077693045
-0.21353191 0.039245427 0.1759826 0.12996596 0.10270134 0.050971445 0.17866345 -0.026111007
0.042868257 -0.15038067 -0.023989558 0.11682689 -0.06761831 0.086619906 0.0934934 -0.020096242
-0.13349488 -0.10808903 -0.23901641 0.06576413 -0.047460053 -0.2547604 0.1381846 -0.17669654
-0.13175263 0.13140088 0.22087204 -0.2301172 -0.07122791 -0.043257356 0.1766094 0.13206106
-0.2427729 -0.23730987 -0.021553516 -0.07644394 0.092271864 0.2013334 -0.06302392 -0.2147615
-0.0880366 -0.06932215 -0.020147406 -0.042455684 -0.24010748 0.029156458 0.1952858 -0.027744776
0.12931782 -0.22413868 -0.1584791 -0.008320813 -0.1400842 0.18010035 -0.014807953 0.0461816
0.15268922 -0.22983122 0.024573863 0.004415116 0.12628242 0.14153299 -0.11169051 -0.002624333
0.15015665 -0.18600999 -0.18392074 -0.24290878 0.09054048 -0.21522254 0.17029427 -0.17287385
-0.07326639 -0.08324075 -0.25562212 0.1842848 -0.038392246 -0.23782454 -0.24589753 -0.044834852
0.1391018 0.22725593 0.034183174 -0.24390805 -0.04675461 -0.042214572 0.01727432 -0.22674596
-0.18786624 -0.21937615 0.0697304 -0.009936094 0.24647547 0.07246189 0.19843446 -0.048642755
0.09692313 -0.23074502 0.16307324 0.086690605 0.06489444 0.030801117 0.10739171 -0.08699435
-0.018846631 -0.04318153 0.055904027 -0.15882419 -0.046833277 0.103223324 0.22037882 0.06102678
0.2038942 -0.14786905 0.1838026 -0.22090995 -0.19188249 0.16783714 -0.17485112 0.10673952
-0.03199655 -0.031589627 -0.08718836 -0.0893234 -0.13005108 -0.18362796 0.13126254 0.16251862
0.14119792 -0.15912795 0.010088384 0.0058048964 0.04527402 -0.23019308 -0.038348436 -0.12838
-0.039224386 0.04064542 0.057739913 -0.0962221 -0.22133017 -0.2247352 -0.1480372 0.13098454
0.116889 0.020950556 -0.24159586 0.0766297 -0.14115691 0.07194543 -0.24735147 -0.2194879
0.18746436 0.15011787 0.1786192 -0.13319194 -0.14095753 0.23922938 0.12361252 0.015764177
-0.055180907 -0.076874495 -0.15720642 -0.21422762 0.055484295 0.15229815 -0.23606342 0.15575498
-0.021389723 -0.23696005 -0.198852 0.031812847 0.08688575 -0.07682717 -0.20098191 -0.06445521
0.0679 0.06250787 0.047456145 -0.18923594 -0.11473304 -0.016533405 -0.0077947653 0.0399404
0.09721446 0.24164867 -0.031799138 0.22345185 0.104872964 -0.22409339 0.20840494 -0.21260846
0.025291607 -0.084977046 0.09902823 -0.22966659 0.08921399 -0.07692448 0.14405707 0.030471921
0.06548256 0.24288392 -0.19187115 -0.041646063 0.020878136 -0.2329962 0.031570613 -0.066005826
-0.12051926 -0.26019242 0.001019355 0.025498092 -0.03228231 -0.027072936 -0.053633988 0.1260593
-0.06193171 0.060141332 0.033279717 -0.10299152 0.068627484 -0.0018000508 -0.008424068 -0.08720446
-0.26549417 0.189094 0.057222486 0.03069414 -0.21373641 0.102167845 0.16092546 0.23054826
-0.22510076 0.09156642 0.12836663 -0.016266512 0.07500321 0.012148561 0.09422886 -0.0036236506

arith.constant3 f4 [32]
00000000: 0c09 13bf 9334 893c 0000 0000 64cc 92be
00000010: 316c 86be b87c e33c e0c2 01bd 0e14 50bb
00000020: 72c5 27be 0000 0000 af16 02bd 4ad5 ef3e
00000030: 0000 0000 f2e8 81bd cb25 d7bd a072 ffbd
00000040: 0000 0000 4e6a 75be 5aa1 a53e daaf ba3d
00000050: 75e0 01bd 0000 0000 a3cf 1ebe 0000 0000
00000060: 7a5f afbe 93d5 cebe 9ae7 0fbe 0000 0000
00000070: bad1 e7bd 0000 0000 ac43 c2bd 2fc9 1bbe
-0.5743568 0.016748702 0.0 -0.28671563 -0.26254418 0.027769431 -0.031679988 -0.0031750235
-0.16383913 0.0 -0.031759914 0.46842414 0.0 -0.06343259 -0.10505255 -0.12473035
0.0 -0.23966333 0.32349664 0.09115572 -0.0317082 0.0 -0.15508895 0.0
-0.3425253 -0.4039732 -0.14053193 0.0 -0.11319299 0.0 -0.09485564 -0.15213464

sequential_1_1/dense_3_1/BiasAdd/ReadVariableOp f4 [64]
00000000: 0000 0000 0000 0000 0000 0000 e722 81bd
00000010: 0000 0000 6bb4 00bf e740 91bd b86c 0cbd
00000020: 0000 0000 0000 0000 0000 0000 9f2a c13c
00000030: b5ea d6be f959 b7bd 31f3 c4be 0000 0000
00000040: 6fdd e5be df74 c5bd 0000 0000 0000 0000
00000050: c9e9 76bd 97ad d3be 13e2 f9be 0000 0000
00000060: 0000 0000 0000 0000 3fe4 dcbd 0000 0000
00000070: 0000 0000 2ed9 fe3c 0000 0000 0000 0000
00000080: 01df 5abd 847b 77bd 47c1 81bd 0000 0000
00000090: b5eb babe 748e 81be 0000 0000 0000 0000
000000a0: a4b5 b2be 1fe4 b6be 0000 0000 0000 0000
000000b0: 54f2 01be bb48 02be b298 bdbb 0000 0000
000000c0: 85d5 95be 0000 0000 0000 0000 50a7 2fbe
000000d0: 0000 0000 0000 0000 1ec0 4cbc 0000 0000
000000e0: 0000 0000 0caa 5bbe 2f59 4b3f ff33 2bbe
000000f0: 0000 0000 49a7 88be 0000 0000 a919 87be
0.0 0.0 0.0 -0.06305485 0.0 -0.50275296 -0.07092457 -0.03428337
0.0 0.0 0.0 0.023579894 -0.41975942 -0.08952708 -0.3846679 0.0
-0.44895503 -0.09641432 0.0 0.0 -0.06028155 -0.41343376 -0.48805293 0.0
0.0 0.0 -0.10785722 0.0 0.0 0.031109419 0.0 0.0
-0.05343533 -0.060420528 -0.06335693 0.0 -0.36507955 -0.25303996 0.0 0.0
-0.34904206 -0.35720918 0.0 0.0 -0.12690097 -0.12723057 -0.005786025 0.0
-0.29264465 0.0 0.0 -0.17153668 0.0 0.0 -0.012496976 0.0
0.0 -0.21451586 0.7943296 -0.16719054 0.0 -0.26690128 0.0 -0.26386765

sequential_1_1/dense_3_1/MatMul f4 [64, 15]
00000000: ac86 f93d 708e d33d fed4 4bbe 1f1e 69be
00000010: c0ec 75bd 8077 733d df4a 8a3e c0f7 83be
00000020: 7409 f63d 765a 373e 65bb 4abe e270 1bbe
00000030: 40f9 cebd f0ca e33d 40dc 25bc 6073 16bd
00000040: 6e34 583e 29f7 2bbe 624a afbd 56e3 65be
00000050: b40d 17be 8894 2ebe ec53 a13d 165c 67be
00000060: 84ff 823d 0867 efbc 7ef8 723e 6cf7 40bd
00000070: d049 27be 74ad 853d 6099 2b3e a88b 243d
00000080: 9269 3e3e 38a1 d2bd f5f0 75be 45a2 883e
00000090: 6092 31be f478 3bbe 2230 2f3e 802d 14be
000000a0: 247c eabd 6ca0 b93d 5c43 dfbd e09b 0abe
000000b0: 9e6c 5f3e fef8 f63e 923a 9dbe bc3b 6b3d
000000c0: 8b72 80bd 4c6f adba 3bd7 9dbd 7b28 86be
000000d0: 3ec6 4ebe 58d1 07bf dbaf 1cbe 5514 22bf
000000e0: 83df a2bd da76 10bf 8842 3dbf bee6 2abf
000000f0: e4b4 c13d a799 40be 1c0e 493e 6cb8 a63d
00000100: 6c84 bebd 1ed7 2e3e ee84 f5bd 40b7 15bc
00000110: 509d acbc 8a72 073e c047 c9bc 9e87 14be
00000120: 34b1 f4bd 108d 063d c07d c03d 9f41 b3c0
00000130: 3fae 11bf b454 00bf bf6f 043f aca9 14bb
00000140: 2c30 34bf 5226 3b40 f067 1c40 1fe2 0940
00000150: 08e7 0240 65e7 3340 8d9c 0c3f 5bcf 4340
00000160: 893a 5b40 0fbd 2840 dcaa ad3d 88ec 8abd
00000170: 85c7 3dba 89b2 a93c e767 94bb 5d75 ea3b
00000180: 8982 62be 767a 96be f29b ccbe dd9c ccbe
00000190: 15a2 f5be 6073 e03c 1c4c c7bd 6860 88be
000001a0: 4b28 70be 7a62 863f cf67 933d c6f1 acbd
000001b0: dd8e 1dbf 92cf edb9 6d5f 543e a109 81bf
000001c0: 2a82 d7be 24dc fdbe c387 00bf 243e 76bf
000001d0: 572e 73be 17f1 34bf 113f 30bf f268 12bf
000001e0: 9c6c 0cbd b815 1b3e ba2c 703e 3a42 443e
000001f0: 62cb a2bd 80cc 173c c5db 64be 9666 b0bd
00000200: d2c5 29be e05d a83c d4d4 8cbe 2f77 61be
00000210: 0d2f 873e 5d07 5ebe 5014 3b3e 3912 803e
00000220: bef1 a3bd 54ea 54be 1e4d 013e 79ee 8bbe
00000230: 3aee 95bd a42d cabd daf6 ecbd 83e0 68be
00000240: 12b8 8abe c464 12be f3eb 43be 68fa b63d
00000250: 40e8 80bb 6fa5 813e 3fb4 76be 5aa8 593e
00000260: d08c f83d 8f9f 32be 0a2e 47be 8ecf 683e
00000270: 5c68 8abd 7c57 e13d f6e9 273e d0de 013e
00000280: daf7 5b3e a035 e0bc 206b fb3c c2bc 07be
00000290: c41d 59be 97be a040 757f 3f3d de7d 7e3e
000002a0: 67e6 5cbf 01b3 523c b8f7 2d3e 97ee 44c0
000002b0: 3d33 2ec0 2c67 09c0 e512 06c0 b14a 33c0
000002c0: 178b 5abe 7ad5 4bc0 cb0e 66c0 e546 18c0
000002d0: 6c51 57c0 bd28 08bf c2dd a3be 1faa ed3e
000002e0: 1049 46ba 641a 40be 85bc ce3f 3a6f 813f
000002f0: 0e60 b73f fa4e 9f3f 374e b43f 24d2 203f
00000300: 43eb d63f c7d4 0f40 f220 bf3f aaf5 eebc
00000310: 90dc aabd 1adb 303e 6941 8ebe e292 c5bb
00000320: 2f85 60be 6e46 c63d ee69 6abe 6b2e 42be
00000330: 9e02 79be 70f0 4d3e 16a2 793e 521a 1a3e
00000340: d8ce 1abe 3afe 2d3c b4a1 84c0 0f8e 39be
00000350: 53f7 dcbe d9e7 da3e fbdc bb3b 66d3 88be
00000360: 68e1 1d40 475b f73f 3ed1 bb3f 77f5 d83f
00000370: 6e23 0640 12b2 173f 6e68 0240 b386 3740
00000380: b897 0840 d043 fbbd a043 35bd 6c58 6cbe
00000390: 7025 a6bc e0f1 1bbe 4aa8 9ebd da68 6b3e
000003a0: c0cc bcbb 323f b4bd da35 693e f036 a83d
000003b0: 449b a43d 28d3 59be 5842 1dbd 6ce0 e73d
000003c0: 48f9 89c0 4546 e0be 4e5b e6be f11d 003f
000003d0: 473f 053c f501 22bf e792 2040 3837 0a40
000003e0: b1b1 db3f bb18 cd3f 02f5 0340 6bad e83e
000003f0: 95bd 0f40 64d1 2940 afd3 0b40 e790 16bf
0.1218389 0.10329902 -0.19905469 -0.22765397 -0.060040236 0.059440136 0.27010247 -0.25774956
0.12013522 0.17905602 -0.19798048 -0.1517978 -0.101061344 0.11122692 -0.0101233125 -0.036731124
0.2111375 -0.16793503 -0.08559109 -0.22450003 -0.14751321 -0.17048848 0.07877335 -0.22593722
0.06396392 -0.029223934 0.23727605 -0.04711096 -0.16336751 0.06527224 0.16757727 0.04017225
0.1859496 -0.10284656 -0.24017699 0.26686302 -0.17340994 -0.18307859 0.17108205 -0.14470482
-0.11449459 0.09063801 -0.1090152 -0.13536024 0.21818778 0.4823684 -0.30708748 0.057430014
-0.06271847 -0.0013232022 -0.077070676 -0.2620276 -0.20192811 -0.5305381 -0.15301459 -0.63312274
-0.07952788 -0.56431353 -0.73929644 -0.66758335 0.0945833 -0.18808614 0.19634289 0.081406444
-0.09302601 0.17074248 -0.11988245 -0.0091379285 -0.021071106 0.13227287 -0.024570346 -0.14504859
-0.11947861 0.03284937 0.09398985 -5.6017604 -0.56906503 -0.50129247 0.5173301 -0.002268414
-0.70386004 2.924214 2.4438438 2.1544263 2.045351 2.8109982 0.5492638 3.059531
3.4254477 2.6365392 0.084798545 -0.06783396 -0.00072395086 0.020715015 -0.0045289877 0.007155104
-0.22120108 -0.29390305 -0.39962727 -0.39963427 -0.4797522 0.027398765 -0.097313136 -0.26636052
-0.2345287 1.0498803 0.07197534 -0.08444552 -0.6154612 -0.00045358815 0.20739527 -1.0081064
-0.42091495 -0.49582016 -0.50207156 -0.9618857 -0.23748146 -0.70680374 -0.6884623 -0.57191384
-0.034283265 0.15145004 0.23454562 0.19165888 -0.079489484 0.009265065 -0.2234946 -0.08613317
-0.16579369 0.020552576 -0.27506125 -0.22018121 0.26403084 -0.21682496 0.18269467 0.25013903
-0.08005093 -0.20792514 0.12627074 -0.27330378 -0.07320829 -0.098719865 -0.11570521 -0.22741894
-0.2709356 -0.14296252 -0.19132976 0.0893448 -0.0039339364 0.25321528 -0.24092196 0.21255627
0.12136233 -0.1744368 -0.19451156 0.22735426 -0.06758186 0.110030144 0.16397843 0.12682652
0.21481267 -0.02736932 0.03069073 -0.13255599 -0.21202761 5.0232654 0.046752412 0.24852702
-0.86289066 0.012860061 0.16989028 -3.0770624 -2.7218773 -2.146922 -2.0949032 -2.8014338
-0.21342121 -3.1849046 -3.594653 -2.379327 -3.3643446 -0.5318716 -0.32005125 0.46418855
-0.0007563988 -0.18760067 1.6151282 1.0112069 1.4326189 1.2445977 1.4086369 0.6282065
1.6790546 2.247362 1.4931929 -0.029169876 -0.0834285 0.1727108 -0.2778428 -0.0060294727
-0.21925806 0.09681402 -0.22891971 -0.1896302 -0.24317405 0.20111251 0.24378237 0.15049103
-0.15117967 0.010619694 -4.144739 -0.18120597 -0.43157443 0.4275501 0.00573313 -0.26723784
2.4668827 1.9324731 1.4673231 1.694991 2.0959125 0.5925609 2.037624 2.8675964
2.1342602 -0.122687936 -0.044253945 -0.23080605 -0.020281523 -0.15228987 -0.07746942 0.22989216
-0.005761713 -0.08801116 0.22774449 0.082136035 0.08037427 -0.21271956 -0.03839335 0.11322102
-4.31168 -0.4380361 -0.44991535 0.50045687 0.008132762 -0.63284236 2.5089662 2.1596203
1.7163602 1.6023172 2.061829 0.45444807 2.2459462 2.6534052 2.1847951 -0.58814853
