app/src/main/ml/new_distilled_model.tflite (tflite, 14632 bytes, 5 tensors)

arith.constant f4 [1, 32]
-0.36154088 -0.26986653 -0.5605312 0.921323 -0.34831226 -0.46086958 0.10713156 0.92617106
-0.16999836 -0.07325085 -0.17007406 0.4492924 -0.12227273 -0.7892363 0.48170415 -0.8018796
-0.28856027 0.30671078 0.6311526 0.35139486 -0.104305394 1.1463796 0.22573476 0.5232669
1.0133284 -0.6087473 2.6150115 0.1506337 0.41422728 -1.0055184 -0.27276465 0.41087434
00000000: e31b b9be f22b 8abe f97e 0fbf d3db 6b3f
00000010: fc55 b2be 19f7 ebbe cb67 db3d 8c19 6d3f
00000020: 0d14 2ebe 8b04 96bd e527 2ebe a709 e63e
00000030: 206a fabd 640b 4abf eda1 f63e fb47 4dbf
00000040: 2cbe 93be 3209 9d3e 3793 213f 07ea b33e
00000050: 119e d5bd 91bc 923f 0327 673e d2f4 053f
00000060: bfb4 813f ddd6 1bbf 595c 2740 b83f 1a3e
00000070: 9915 d43e d4b4 80bf cfa7 8bbe 1f5e d23e

arith.constant1 f4 [32, 64]
-0.3940369 2.2538178 0.22883229 -0.10419315 0.031978082 0.4721118 -0.6053146 0.01480064
0.1375832 0.065556504 0.37116036 -0.29495782 0.58940333 -0.31912407 0.2407081 0.462361
0.01658401 -0.08422154 0.8632625 0.052837674 -0.04050314 0.75001556 0.4261248 -0.23806033
-0.14880887 0.055600144 -0.14883202 -0.150556 0.15254518 2.4410574 0.113401584 0.037882
0.14187792 -0.11010285 0.08732046 0.58266795 -0.61370784 0.32188234 -0.35284123 0.13870545
-0.4486808 0.19388007 0.16184352 -0.20476426 0.2795221 -0.21789022 -2.564927 0.06636379
0.08641994 -0.942178 0.08552255 0.24045473 -0.37392762 0.28390422 0.64468026 -0.3077669
0.12246616 -0.05591765 0.378045 1.3367763 -0.04498748 -0.40264195 0.2754512 0.7379921
0.0032759397 2.220009 0.1099795 0.42333838 -0.41713881 -0.775099 -0.5528385 -0.27612832
0.24835376 0.17961577 0.85562855 0.06953142 -1.1599766 -0.065564714 -0.47666597 -0.23403028
0.30646282 0.08770887 0.9345217 -0.64691114 -0.29885495 -0.36509472 0.10289104 -0.039238807
0.1962825 0.14297336 -0.24278335 -0.6220135 -0.108134985 2.1159859 0.26420864 0.35150346
-0.12518342 0.030929087 0.026456688 -0.3351201 -0.34669575 0.5747019 0.4029803 -0.78605884
0.1617563 0.24880421 0.7532919 0.055784192 -0.06530581 0.3159942 -0.1211207 0.31816083
-0.06509052 -0.27464005 0.24357334 0.25616375 0.2107418 0.41519287 -0.17848186 -0.117681004
-0.033967767 -0.090164654 -0.25570202 0.43268216 0.4310339 -0.51274514 0.8411012 0.12931876
-0.14283928 2.2943842 0.049302872 0.19360116 -0.57100797 0.2682257 -0.074434884 -0.24251796
-0.54051286 0.40250129 -0.29999503 0.24385281 0.2374121 -0.11278308 -0.79822993 0.13071845
0.41505557 -0.27152565 1.1208072 -0.4169357 0.21461031 0.7243847 0.42790747 0.093749724
-0.039409414 -0.15734887 0.2335065 -0.10550065 0.38511196 3.0539544 0.6421084 0.020154517
0.27557045 -0.5272732 0.094981246 0.1569826 -1.1011928 1.0332395 0.07537508 -0.46434885
-0.049344603 0.09939269 -0.32335928 -0.0113623375 -0.3534416 0.0350579 -0.19981645 0.39938337
0.014378136 -0.08608235 0.29816404 0.22974609 -0.07505236 0.5509876 0.11486029 -0.49183667
-0.19847251 -0.26769075 -0.26794916 1.6338557 -0.21229252 0.3938443 1.8568648 0.72466516
-0.15121025 -14.973198 -0.22489351 0.107177645 0.13573346 0.3326818 0.27776855 -0.4626295
-1.0687845 0.8672142 0.23042727 0.7074475 0.084281206 0.45545277 -1.3280847 -0.005573836
0.13736227 -0.08945737 -0.314075 -0.09026714 -0.072369985 0.2717596 0.067048274 0.26351404
-0.0069625145 -0.34107426 0.10425154 -0.02763722 -0.087021336 -1.533171 0.25833854 0.13278523
0.13127585 -0.11071267 0.13578433 0.35905328 -4.38623 0.30624372 0.09754202 0.64824855
-0.19404481 0.10834765 -0.36507836 -0.06651548 -0.08090138 -0.34405658 0.0128944395 0.23707858
-0.20565414 -0.4108209 0.26057673 0.06698582 -0.09158031 -0.38953006 0.20824137 -0.10800727
-0.008347763 0.0887625 0.09215147 -0.018801304 -0.16503723 0.28434238 -1.4392077 -1.0384507
00000000: 34bf c9be 8d3e 1040 0353 6a3e 3863 d5bd
00000010: 73fb 023d a3b8 f13e e6f5 1abf 627e 723c
00000020: 9ce2 0c3e 7d42 863d bb08 be3e b604 97be
00000030: 23e3 163f 3b64 a3be 2f7c 763e 95ba ec3e
00000040: 31db 873c 587c acbd c5fe 5c3f 516c 583d
00000050: 9fe6 25bd 0501 403f 082d da3e 16c6 73be
00000060: 5a61 18be fabc 633d 6c67 18be 5a2b 1abe
00000070: ce34 1c3e 493a 1c40 173f e83d 282a 1b3d
00000080: 7248 113e 9a7d e1bd 12d5 b23d ba29 153f
00000090: f51b 1dbf c3cd a43e 9ba7 b4be cd08 0e3e
000000a0: 7db9 e5be 7f88 463e 4fba 253e b9ad 51be
000000b0: 851d 8f3e 9d1e 5fbe c427 24c0 bde9 873d
000000c0: f0fc b03d 9432 71bf 7226 af3d c439 763e
000000d0: 7173 bfbe e55b 913e c409 253f a093 9dbe
000000e0: 8acf fa3d e809 65bd 1d8f c13e 7c1b ab3f
000000f0: cb44 38bd 1627 cebe f107 8d3e 0ded 3c3f
00000100: 26b1 563b a114 0e40 ef3c e13d cfbf d83e
00000110: 3893 d5be e36c 46bf d386 0dbf b160 8dbe
00000120: 7350 7e3e 32ed 373e 790a 5b3f 7d66 8e3d
00000130: 1d7a 94bf cb46 86bd 900d f4be a2a5 6fbe
00000140: b2e8 9c3e b5a0 b33d d03c 6f3f f89b 25bf
00000150: 8403 99be b2ed babe 8ab8 d23d dfb8 20bd
00000160: 48fe 483e 9c67 123e 339c 78be 473c 1fbf
00000170: e075 ddbd 506c 0740 5b46 873e 43f8 b33e
00000180: 1530 00be ff5e fd3c b2bb d83c dd94 abbe
00000190: 1b82 b1be aa1f 133f 6f53 ce3e 273b 49bf
000001a0: 72a3 253e 88c6 7e3e bdd7 403f f77d 643d
000001b0: 0dbf 85bd fec9 a13e 210e f8bd fae5 a23e
000001c0: 2e4e 85bd 9f9d 8cbe 4a6b 793e e527 833e
000001d0: b3cc 573e 2994 d43e f3c3 36be bd02 f1bd
000001e0: c921 0bbd 3fa8 b8bd 60eb 82be 8488 dd3e
000001f0: 7ab0 dc3e 4443 03bf 6952 573f 236c 043e
00000200: 7644 12be 31d7 1240 cff1 493d 623f 463e
00000210: 942d 12bf e154 893e 5171 98bd a156 78be
00000220: 0d5f 0abf a614 ce3e f398 99be 8db4 793e
00000230: 281c 733e d1fa e6bd cc58 4cbf 0fdb 053e
00000240: 2a82 d43e 6905 8bbe 9c76 8f3f 9978 d5be
00000250: cec2 5b3e 4771 393f b016 db3e dbff bf3d
00000260: c46b 21bd 1020 21be 541c 6f3e ba10 d8bd
00000270: 652d c53e fd73 4340 3761 243f 161b a53c
00000280: 9217 8d3e 60fb 06bf 8785 c23d 0cc0 203e
00000290: e3f3 8cbf 3141 843f 405e 9a3d 22bf edbe
000002a0: 911d 4abd 658e cb3d 598f a5be 1929 3abc
000002b0: 4cf6 b4be df98 0f3d af9c 4cbe fa7b cc3e
000002c0: 4692 6b3c f14b b0bd f5a8 983e 8f42 6b3e
000002d0: 0db5 99bd 860d 0d3f df3b eb3d 04d2 fbbe
000002e0: 613c 4bbe c30e 89be a230 89be 2f22 d13f
000002f0: 3663 59be f6a5 c93e bfad ed3f a883 393f
00000300: dcd6 1abe 3892 6fc1 7c4a 66be f47f db3d
00000310: b6fd 0a3e 4555 aa3e ae37 8e3e c6dd ecbe
00000320: eecd 88bf c001 5e3f 20f5 6b3e 481b 353f
00000330: a09b ac3d 1b31 e93e aefe a9bf baa4 b6bb
00000340: b2a8 0c3e 6d35 b7bd 70ce a0be fadd b8bd
00000350: b736 94bd 1324 8b3e 9b50 893d 50eb 863e
00000360: ce25 e4bb 49a1 aebe d581 d53d 7467 e2bc
00000370: 3e38 b2bd f33e c4bf f344 843e daf8 073e
00000380: 2d6d 063e 53bd e2bd 0c0b 0b3e d5d5 b73e
00000390: ff5b 8cc0 facb 9c3e 1cc4 c73d 9ef3 253f
000003a0: afb3 46be 5fe5 dd3d 8deb babe 4539 88bd
000003b0: 9faf a5bd 2f28 b0be 3343 533c bac4 723e
000003c0: 0097 52be 1e57 d2be 506a 853e dd2f 893d
000003d0: 758e bbbd 7c70 c7be 3a3d 553e ea32 ddbd
000003e0: 0ec5 08bc 1dc9 b53d e9b9 bc3d 3105 9abc
000003f0: 85ff 28be 5395 913e f537 b8bf f4eb 84bf

arith.constant3 f4 [32]
-0.022398464 -0.019962538 0.10499538 -0.24374026 -0.29530603 0.3514896 -0.2125654 0.03759603
0.23199503 -0.052791715 0.4481694 0.008385546 -0.24748275 -0.3206501 0.43574584 0.53146267
0.15169306 0.14867096 0.8063251 -0.11260296 0.09063952 0.8124324 -0.17453334 -0.33910504
0.35106742 -0.55006194 -0.68391687 0.25487038 0.3121066 0.85295177 -0.042936675 0.4410567
00000000: fc7c b7bc 7a88 a3bc d107 d73d 0c97 79be
00000010: 5a32 97be 72f6 b33e bfaa 59be 4bfe 193d
00000020: 1b90 6d3e 203c 58bd 7676 e53e 8763 093c
00000030: 1e6c 7dbe 402c a4be 141a df3e f00d 083f
00000040: 6d55 1b3e 333d 183e 526b 4e3f 619c e6bd
00000050: 36a1 b93d 92fb 4f3f deb8 32be 2d9f adbe
00000060: 1cbf b33e dcd0 0cbf 2d15 2fbf 5f7e 823e
00000070: 70cc 9f3e 0c5b 5a3f 5ede 2fbd 2fd2 e13e

sequential_6_1/dense_18_1/BiasAdd/ReadVariableOp f4 [64]
-1.1563013 -0.11897364 -0.83874714 -0.51216096 -0.14784485 0.19600771 -0.9148377 0.0071629984
-0.92576313 0.1542655 -0.8766359 0.3303674 0.1311372 0.41413826 -0.615866 -0.5964042
-0.27822855 -0.13213128 -0.4336653 -0.48205286 -0.35939646 -0.8108091 -1.047 -0.40440035
-0.5123747 -1.0990005 0.45842773 -0.59365624 0.16991183 -0.2956313 -0.078269675 -0.5342168
-0.5241539 -0.59447676 -0.31609496 -0.49995002 -0.10150913 0.08975705 -0.45497155 -0.51507324
-0.23170887 -0.54090506 -1.010808 0.18768221 -0.6471715 -0.82216245 -0.88075674 -0.46031976
-0.34876645 -0.6168724 -0.19674228 -1.0536206 -0.63465804 -0.5143374 -0.8347004 -0.047688935
-0.36189717 -0.5976407 -0.93373024 -0.28520662 -0.590868 0.48603377 -1.339388 -0.49736923
00000000: ae01 94bf 74a8 f3bd 22b8 56bf fb1c 03bf
00000010: a464 17be 3fb6 483e ce32 6abf 96b7 ea3b
00000020: d0fe 6cbf c6f7 1d3e 366b 60bf ea25 a93e
00000030: d548 063e ee09 d43e 65a9 1dbf f2ad 18bf
00000040: f973 8ebe 6c4d 07be 6109 debe a2cf f6be
00000050: d002 b8be 2f91 4fbf 1904 86bf 900d cfbe
00000060: fd2a 03bf 0cac 8cbf 0ab7 ea3e dbf9 17bf
00000070: 5efd 2d3e fc5c 97be da4b a0bd 6fc2 08bf
00000080: f32e 06bf a12f 18bf 33d7 a1be 73f9 ffbe
00000090: 05e4 cfbd 8bd2 b73d 08f2 e8be d7db 03bf
000000a0: 1745 6dbe c178 0abf 2862 81bf c42f 403e
000000b0: 08ad 25bf 3d79 52bf 4679 61bf 08af ebbe
000000c0: 8491 b2be 59eb 1dbf cf76 49be 0add 86bf
000000d0: f378 22bf 9eab 03bf edae 55bf 7955 43bd
000000e0: 964a b9be fbfe 18bf f208 6fbf 9a06 92be
000000f0: 2043 17bf 6bd9 f83e 1171 abbf 2ea7 febe

sequential_6_1/dense_18_1/MatMul f4 [64, 15]
-0.0433336 0.28597242 0.25076127 0.32263738 0.15888022 -0.19853564 -0.09432107 0.20621727
0.0106370235 0.105801836 0.034703292 -0.34566745 0.034608055 0.13569705 -0.12167008 -2.6129136
-0.0061694942 0.008845612 0.0027561286 -0.0017633031 -0.002452286 -0.0015007085 0.98987377 1.0019411
-0.10623602 0.42559698 0.0016139678 -0.14623357 0.9938386 0.18741119 0.015445578 -0.019336041
0.9260563 0.5866423 -0.024236904 -0.1226755 0.0063226363 0.19740386 0.13733912 0.109837316
0.177826 0.010103974 0.23989637 0.024897283 0.1812373 -0.15724735 -0.303816 0.04160978
0.41582793 -0.558695 -0.18075156 -0.18279509 0.316172 0.34188378 -0.2751756 -0.08455023
-0.3288125 -0.057150006 -0.09501837 0.08096761 -0.0025517861 -0.17485061 0.004147391 0.265547
-0.12116157 0.022737116 0.72319275 0.057932265 0.026861945 -0.027173314 0.60081387 0.021989135
0.7740078 -0.16941148 -0.032023884 -0.6034958 0.6672971 0.018711338 -0.36936098 -0.0078818565
-0.006274768 -0.43149528 -0.10323694 0.2508354 0.75298035 -0.051834624 -0.0097608175 -0.10370707
0.07782997 0.06320044 0.04054586 0.76904994 -0.08843057 -0.19177997 0.024820235 -0.053540725
-0.30594164 -0.10128543 0.11857007 0.40314612 0.24341461 0.0017534454 0.11342166 0.29863548
0.35690275 0.01755469 0.45240977 0.04126113 -0.1343762 0.03220667 0.008675061 -0.09386396
-0.071620695 0.3114061 -0.17796777 -0.37398466 -0.17290942 0.42677936 -0.070537895 1.0692834
0.025691088 0.7354945 0.008372054 -0.46918344 0.013750964 0.10426337 -0.013197506 0.16501401
0.22017583 0.265422 0.5513528 -0.042159423 0.42464077 0.75854874 0.29301775 -1.0816257
-0.30675757 -0.028081616 -0.60355467 -0.010177489 0.016746439 -0.35195246 -0.2128041 0.95235026
0.5605331 -0.12473294 0.0004872089 -0.036085553 0.21647877 -0.36565 -0.22658731 0.025477206
0.027238261 0.008669988 0.18676822 0.13429011 0.23242289 0.31826368 0.20678817 0.36586818
0.38477656 -0.026776647 0.20114367 0.5946655 0.29024175 -1.149569 0.067380935 -0.016029894
-0.011414188 0.27795967 0.012683484 -0.6124911 -0.15626083 0.7560035 -0.3000644 -0.5834976
-0.001740739 0.32664305 -0.059388887 -0.4257719 0.0129146 1.3682823 -0.0039083604 0.04008092
0.13244529 0.06691396 -0.68646383 0.01598539 0.14383616 0.12167308 0.06858329 0.045965526
-0.07539632 0.4073585 -0.05821745 -0.7421925 0.07264608 0.010927282 0.01691913 0.014548445
0.0112025 0.75124246 0.6273562 -0.45511088 0.91257465 -0.1368633 -0.041769687 -0.588005
-0.0945845 -0.65881455 0.37073207 0.61966765 0.058816306 0.18508536 -0.014651624 -0.19383773
0.085223846 0.3401764 0.14309286 0.061496556 1.0125813 -0.0019164665 0.32191312 0.8296825
0.8426298 0.028851712 0.18966378 0.511478 -1.8725063 0.22653534 -0.038147796 0.015280686
0.10195951 0.19341487 -0.14495748 0.14520504 -0.1635718 0.12827949 0.1771966 -0.18729709
-0.4098419 0.17261353 -0.034154322 0.056077044 0.028752854 0.012987808 0.0696327 0.92563146
0.035528064 1.0675979 0.14290456 -0.085504025 0.04021686 0.13770959 -0.008784408 -0.040258814
00000000: 937e 31bd fa6a 923e c863 803e ba30 a53e
00000010: 7fb1 223e ed4c 4bbe 682b c1bd 9f2a 533e
00000020: e946 2e3c a2ae d83d 0a25 0e3d 53fb b0be
00000030: 2dc1 0d3d 2bf4 0a3e 2a2e f9bd fa39 27c0
00000040: 7829 cabb 30ed 103c 2aa0 343b a21e e7ba
00000050: 88b6 20bb 6cb3 c4ba 5e68 7d3f 9b3f 803f
00000060: 4592 d9bd d9e7 d93e c68b d33a 41be 15be
00000070: 356c 7e3f b8e8 3f3e 730f 7d3c 9e66 9ebc
00000080: 0712 6d3f 312e 163f 798c c6bc 4b3d fbbd
00000090: 1e2e cf3b 3d24 4a3e a0a2 0c3e 63f2 e03d
000000a0: 0518 363e 238b 253c 65a7 753e 63f5 cb3c
000000b0: 4596 393e 7305 21be c58d 9bbe 046f 2a3d
000000c0: 66e7 d43e a306 0fbf f016 39be a32e 3bbe
000000d0: 4ce1 a13e 640b af3e d1e3 8cbe ac28 adbd
000000e0: 1d5a a8be 2016 6abd fe98 c2bd 59d2 a53d
000000f0: de3b 27bb 0a0c 33be d6e6 873b c7f5 873e
00000100: 8f23 f8bd 3043 ba3c 2923 393f 624a 6d3d
00000110: 950d dc3c 929a debc f0ce 193f 8f22 b43c
00000120: 6025 463f 347a 2dbe 7a2b 03bd b37e 1abf
00000130: fcd3 2a3f 8548 993c e21c bdbe e722 01bc
00000140: 929c cdbb f3ec dcbe e46d d3bd 7f6d 803e
00000150: 52c3 403f 8b50 54bd d6eb 1fbc 5f64 d4bd
00000160: 5265 9f3d 3b6f 813d 6a13 263d 75e0 443f
00000170: 161b b5bd f861 44be ce53 cb3c 854d 5bbd
00000180: 62a4 9cbe bc6e cfbd ddd4 f23d 2b69 ce3e
00000190: ae41 793e ddd3 e53a 9e49 e83d c0e6 983e
000001a0: f5bb b63e dace 8f3c 41a2 e73e 6e01 293d
000001b0: ea99 09be 24eb 033d d821 0e3c bf3b c0bd
000001c0: dfad 92bd 9f70 9f3e 2f3d 36be eb7a bfbe
000001d0: 2b0f 31be d382 da3e 2c76 90bd 47de 883f
000001e0: 1e76 d23c 5e49 3c3f f12a 093c d038 f0be
000001f0: b94b 613c 0988 d53d 5a3a 58bc 6ff9 283e
00000200: c675 613e 64e5 873e 7525 0d3f 5caf 2cbd
00000210: 846a d93e 4030 423f 6c06 963e b672 8abf
00000220: 540f 9dbe 6b0b e6bc 8f82 1abf 7cbf 26bc
00000230: d42f 893c 1d33 b4be 51e9 59be 3acd 733f
00000240: 197f 0f3f fc73 ffbd 1270 ff39 72ce 13bd
00000250: 9cac 5d3e 7a36 bbbe 8106 68be 93b5 d03c
00000260: c622 df3c 910c 0e3c 2b40 3f3e 5983 093e
00000270: 4400 6e3e 75f3 a23e 47c0 533e 1353 bb3e
00000280: 6f01 c53e b35a dbbc 9bf8 4d3e 003c 183f
00000290: 919a 943e 1425 93bf 04ff 893d 2051 83bc
000002a0: 9302 3bbc bb50 8e3e 63ce 4f3c 37cc 1cbf
000002b0: d702 20be 7289 413f 0ba2 99be 1960 15bf
000002c0: 8229 e4ba c23d a73e c341 73bd c6fe d9be
000002d0: c297 533c e023 af3f b411 80bb e42b 243d
000002e0: bd9f 073e 300a 893d 18bc 2fbf cbf3 823c
000002f0: c949 133e bc2f f93d 6575 8c3d 5946 3c3d
00000300: 6369 9abd 4b91 d03e 6c75 6ebd 5400 3ebf
00000310: 78c7 943d 5808 333c fd99 8a3c 9a5c 6e3c
00000320: b18a 373c 6d51 403f 6a9a 203f 4b04 e9be
00000330: 7e9e 693f e525 0cbe b116 2bbd 7f87 16bf
00000340: 85b5 c1bd 12a8 28bf 98d0 bd3e 8aa2 1e3f
00000350: 5ee9 703d 0487 3d3e 5d0d 70bc 667d 46be
00000360: d789 ae3d 9a2b ae3e ef86 123e d0e3 7b3d
00000370: 449c 813f f231 fbba ccd1 a43e 1366 543f
00000380: 96b6 573f 6d5a ec3c 3937 423e 39f0 023f
00000390: 49ae efbf e1f8 673e dd40 1cbd d85b 7a3c
000003a0: 26d0 d03d 8c0e 463e bc6f 14be a1b0 143e
000003b0: 5e7f 27be b35b 033e 0773 353e cfca 3fbe
000003c0: ccd6 d1be 9ac1 303e 67e5 0bbd 0bb1 653d
000003d0: 1b8b eb3c d1ca 543c 979b 8e3d 2ff6 6c3f
000003e0: e085 113d 0ca7 883f 9355 123e bc1c afbd
000003f0: 6fba 243d be03 0d3e 7aec 0fbc 6de6 24bd
